…
**************************************************model parameter set 0################################################################################################################################
fold 1/4
Model: "classifier4"
_________________________________________________________________
 Layer (type)                Output Shape              Param #   
=================================================================
 Input (InputLayer)          [(None, 6, 32, 8)]        0         
                                                                 
 Hidden0 (Conv2D)            (None, 6, 32, 4)          292       
                                                                 
 Pooling0 (MaxPooling2D)     (None, 2, 11, 4)          0         
                                                                 
 Flatten (Flatten)           (None, 88)                0         
                                                                 
 Dense (Dense)               (None, 4)                 356       
                                                                 
 Dropout (Dropout)           (None, 4)                 0         
                                                                 
 Output (Dense)              (None, 2)                 10        
                                                                 
=================================================================
Total params: 658 (2.57 KB)
Trainable params: 658 (2.57 KB)
Non-trainable params: 0 (0.00 Byte)
_________________________________________________________________
None
Epoch 1/3
 1/60 [..............................] - ETA: 32s - loss: 0.6377 - f1_sc
…
